hw1/model.npy (npy, 736 bytes, 1 tensors)

array f8 [82]
-0.04652095811448032 -0.02347778146911024 -0.04222423725224408 0.024845617888508715 -0.0008278421066342143 0.04282946770424754 0.032960407273682144 -0.0036637573545192613
-0.021696459810507468 -0.06994621546791881 -0.028650910256457773 -0.06248501962479803 -0.0624592925143744 -0.03286711853790226 -0.02440266463882755 -0.02260905238280126
0.023443636523748417 0.0613766576557949 0.06094657935340469 -0.2773911979295482 -0.2985919873612981 -0.27682981574329657 -0.13453541830659657 -0.21821695123971668
-0.07335597359340583 0.1425870735422523 0.21138039211085483 0.5139500594950962 -0.020852928791012568 0.018373987658624715 -0.02827797638486597 0.02699825696511038
-0.03389725091422263 -0.08446725519299202 -0.04757396523981495 0.06345333906934793 0.16032753023131194 0.00259315482809649 0.021027789726208616 0.012632298774544705
-0.01477927748793704 -0.03292959121504722 -0.04403278530192478 0.018662511999451223 -0.009277506644567338 0.07859764876794727 0.004314470141338509 -0.006202285958855786
-0.01082727322534685 0.007329826941782028 -0.015812686221006098 -0.009085662116795108 0.007632353562805899 0.008687531648971578 0.07689919842175731 0.02598084008963926
0.008968085876790604 -0.013343385576566367 -0.010291695326134288 0.08141373472603405 0.11407877801158298 -0.231182293909527 0.1102091461673613 0.726041700865275
-0.050922111645804326 -0.014370593690533678 -0.04055465536360451 0.025775487977511495 0.03414671673936999 -0.015523697423443039 -0.030539259244413964 -0.09302405819930827
-0.033743373881239436 0.16618078878738424 0.03340296252593805 -0.08153512165156623 -0.01739141066936129 -0.05420892622202805 -0.17951661303423364 0.006925833052184416
0.1526751051887017 0.5447345489063801
00000000: 814d 5c53 98d1 a7bf b4ae 5e3e 8f0a 98bf
00000010: 3ba1 314c 6a9e a5bf 65c7 1e31 2171 993f
00000020: a27b 1a63 7120 4bbf bd8d 3076 beed a53f
00000030: d64a 9bbe 2fe0 a03f b899 94c0 7403 6ebf
00000040: 18e9 4cc5 9837 96bf f9e6 e9c3 fee7 b1bf
00000050: 305e 350a aa56 9dbf d18d 8e57 09fe afbf
00000060: 2b6f 5c15 aafa afbf d1d4 777e f5d3 a0bf
00000070: bc6f 3c1a 03fd 98bf f28b 4fd2 d326 97bf
00000080: aedc acd0 9b01 983f 8d25 bde2 c26c af3f
00000090: 777b 40da 6334 af3f 2390 d302 c7c0 d1bf
000000a0: 781f 2491 211c d3bf e635 4b67 94b7 d1bf
000000b0: d1e7 e3e2 7438 c1bf cef2 8076 88ee cbbf
000000c0: 67c7 8c03 75c7 b2bf 0821 d910 4b40 c23f
000000d0: 19de 903f 830e cb3f cfe0 2965 4772 e03f
000000e0: ec9c bb5c 785a 95bf 1715 5d70 a1d0 923f
000000f0: 848a 14df e6f4 9cbf 004b db5a 6ea5 9b3f
00000100: 28a8 3300 fb5a a1bf 7704 a362 a59f b5bf
00000110: f12c b161 9d5b a8bf 11f6 1f60 7a3e b03f
00000120: c3f7 7ecd 9c85 c43f b6b2 c365 3d3e 653f
00000130: 9194 b914 4f88 953f 2738 e170 f6de 893f
00000140: 35eb c00b 9944 8ebf adb5 adba 25dc a0bf
00000150: 30a9 a519 778b a6bf 7c9f cbfa 431c 933f
00000160: 62c4 03dd 1500 83bf 4736 00bb f91e b43f
00000170: 3e81 81c2 0cac 713f 2ddc a875 9167 79bf
00000180: 5003 4303 9c2c 86bf c333 0170 e105 7e3f
00000190: 697a b968 3331 90bf 57ae 3bed 809b 82bf
000001a0: 86a4 194f 1a43 7f3f e5ba 85c2 c4ca 813f
000001b0: 4160 4f76 aaaf b33f f4c9 07aa b89a 9a3f
000001c0: 6366 631c dc5d 823f 92aa 5ae5 c653 8bbf
000001d0: 87e6 c4f6 cf13 85bf f6f1 17d0 87d7 b43f
000001e0: 6a36 ba4c 4434 bd3f 12ba e0a3 6197 cdbf
000001f0: 4e47 82a6 aa36 bc3f 4bf4 17ce bb3b e73f
00000200: 65f0 5288 7612 aabf 234a 666f 546e 8dbf
00000210: 8576 f96c 94c3 a4bf 5e7f 9bb7 e364 9a3f
00000220: 129f 52af ad7b a13f 3337 f965 e3ca 8fbf
00000230: 6d98 cbfe ae45 9fbf 010d b5b7 6cd0 b7bf
00000240: a8a1 8dbe cf46 a1bf b65b 887e 6945 c53f
00000250: a8de 466f 311a a13f 1c07 f858 7cdf b4bf
00000260: b28f 39d0 0dcf 91bf 08be 8cba 45c1 abbf
00000270: 610d 097f 66fa c6bf 0098 4e27 435e 7c3f
00000280: 6273 d99b db8a c33f 21bc 1126 776e e13f
