hw1/model_best.npy (npy, 856 bytes, 1 tensors)

array f8 [91]
0	0x3f85aa07aa4666dc	0.010578212627297238
1	0xbf86892f96b2cc58	-0.01100384882588494
2	0xbf8ac7f682511024	-0.013076711513470292
3	0xbf6c301d4b81b7c9	-0.0034409114996867035
4	0xbf7e8b42b5480fa3	-0.007457027987133022
5	0xbf5eaa64eb98b8ba	-0.0018716798353000511
6	0xbf64ea728c4e7556	-0.00255319950743053
7	0xbf6c111530c2f8fc	-0.003426114452025007
8	0x3f68aaddee5499c4	0.0030111631955549185
9	0x3f7d496449fa81e6	0.007150069955657012
10	0x3f9301aef6676706	0.01856110934190893
11	0x3f8f43e01a440ffe	0.015266180802889547
12	0x3f9162be20289336	0.016978235924528927
13	0x3f96c61f88954eb2	0.022240154944781217
14	0x3f99bc5265c6c9bf	0.025132453405328322
15	0x3f9cb33cc2406add	0.028027486187151552
16	0x3fa294ad8fb19e10	0.03629057292056015
17	0x3fa5fdc3cb5e2217	0.04295169694438899
18	0x3fa7785de8795b76	0.045840201023273616
19	0xbfa34258bc001241	-0.037615559529545546
20	0xbfa82d452ad5b61f	-0.047220384100779215
21	0xbfaa32836b70c42d	-0.051166636338514905
22	0xbf9e50fb4aa66181	-0.029605795317907194
23	0xbfa52e7bd3bc70f4	-0.04137026748341724
24	0xbf8922f6680812fa	-0.012273716974058758
25	0x3fa5d3777796f53f	0.04262898764452893
26	0x3fb931d07dd8f7ed	0.0984163577313379
27	0x3fc6d89c981d148f	0.17848546435758236
28	0x3f858c12fb0eb495	0.01052107647577775
29	0x3f679034283e58ed	0.0028763788886393333
30	0xbf91064141b159cb	-0.016625423082894202
31	0xbf8eec35e28f0364	-0.015098973251839794
32	0xbf96d7402257c8d9	-0.02230549058544615
33	0xbf947b3119f82739	-0.020001189432185405
34	0x3f8480dd98e21fd6	0.010011416652801513
35	0x3fb1f289e53e07d0	0.07010709616409305
36	0x3fbe3348170f8ea4	0.11796999514586531
37	0x3f80e44baa1f308f	0.008247939233023053
38	0x3f8c27efe7f20f2c	0.01374804903594614
39	0x3f6ec74da5661958	0.003757144596593747
40	0xbf8ebb66dca1fd6b	-0.015005878074815645
41	0xbf93022600b60810	-0.018562883180045786
42	0xbf892438fba87c00	-0.012276120357510578
43	0x3f7adef195c53888	0.006560271922650192
44	0x3f8d08abc8752bc7	0.014176694922431466
45	0x3fadc4446c5ac1c7	0.0581380255001736
46	0x3f29757af43ac2a2	0.0001942360487326061
47	0xbf77105ad9a12257	-0.0056308316071143815
48	0xbf83513c88528bd1	-0.009432289991598982
49	0xbf7a5a221632e2dc	-0.006433613921381389
50	0xbf866941ebc00c8f	-0.01094295025541772
51	0xbf877c8f2f93253c	-0.011468046798102642
52	0x3f61a0d1d54f5459	0.0021518801026823406
53	0x3fa1db7a03f47be1	0.03487759874609942
54	0x3fb52ba4e134b391	0.08269720552625716
55	0x3f9ea1c37886e12c	0.0299139540017858
56	0x3fa0766ff630fdd0	0.03215360527292044
57	0x3fa06eed1109709f	0.032096298532196636
58	0x3fa58fa4034af44b	0.04211151638217155
59	0x3fa9ade76fcfda76	0.0501549076069993
60	0x3fab93d07537cb80	0.05386210852511564
61	0x3faf1f292fba0c0f	0.0607846136818112
62	0x3fbda24f601a1574	0.11575790497052713
63	0x3fc4a1e11cef022f	0.16119016564154395
64	0xbfb4ce66c0839d5a	-0.0812744350438285
65	0xbfa5c5c5b9b8cf93	-0.0425245084010434
66	0xbfb217556320d43c	-0.07066854162333497
67	0xbf8f358f05613d3f	-0.015238873817138397
68	0xbef332cd99a6b590	-1.830906840332363e-05
69	0xbfaa560f2d5805b4	-0.051437830243240695
70	0xbfb07619ecfb7ee5	-0.06430208240226028
71	0xbfb954886eb58928	-0.09894612028941607
72	0xbfa153970b367318	-0.03384086620210364
73	0x3fa1a159381cbb8c	0.03443411645854785
74	0x3f78cfa9a99199a7	0.006057417625106621
75	0xbf983bbaa57e1af1	-0.023665348387590993
76	0xbf8dd77cc8cbd1fa	-0.014571165921986474
77	0xbf851d30a6dde9bc	-0.01030958184468466
78	0xbf8b71e86c80ded9	-0.013400855838070868
79	0x3faa7dbd62f54f2d	0.05174056847559281
80	0x3fbdd61d7135dd3f	0.11654838575292546
81	0x3fc918b0bf922ff1	0.1960659919171799
82	0xbf236a815f984ad0	-0.00014813260331488507
83	0xbf242853c56ef542	-0.00015378973577454864
84	0x3f352539f2abf2fe	0.0003226534342244818
85	0xbf577ed7b2143b3d	-0.0014340502169180723
86	0x3f18bbfbb182d890	9.435390200249389e-05
87	0x3f632a95424930e5	0.0023396411145651824
88	0xbf7278d0b7c92d84	-0.0045097497027869506
89	0xbf55aabe08039028	-0.0013224464201409079
90	0x3f7da179182d5697	0.007234070801890666
