hw1/model_best.npy (npy, 856 bytes, 1 tensors)

array f8 [91]
00000000: 07d9 8d02 3e83 773f bdbd 18ab 3b38 8abf
00000010: 5052 ab7c 6bda 8ebf 5a11 4215 49b9 5abf
00000020: 3f66 c5e8 e637 7bbf 8181 29d6 4fc3 343f
00000030: 4dbe 3161 56d8 58bf f931 79c2 0d52 71bf
00000040: b07d 1647 413c 5e3f 6c40 c9b9 ab2f 723f
00000050: 4517 a25b f599 8d3f 4292 3e7a 713b 843f
00000060: 97b0 c241 f77f 883f 2564 4839 4213 933f
00000070: 94ed 6459 8b9b 963f b1c8 4105 97f9 993f
00000080: bb13 9539 3572 a23f 3e38 e5f7 f1d1 a63f
00000090: aedb cce1 baf7 a83f 83e5 2c93 1914 a9bf
000000a0: 36f8 0929 1244 adbf 098a ff6f 95f4 aebf
000000b0: 2462 8470 3837 a1bf 3f65 e682 d618 a9bf
000000c0: 9da8 aa45 2df6 93bf dbcb b97a 9bba a43f
000000d0: 29f4 a63c 326d ba3f b8d1 068a f266 ca3f
000000e0: feb9 898a 8684 813f e994 f51a 3f33 6d3f
000000f0: a78e 7b63 71e8 92bf a0ea d74d 7fa4 90bf
00000100: 3601 659f c2ba 9abf 4a30 6383 385f 9ebf
00000110: 60cb dee2 5862 493f 24d2 cb21 21dd b13f
00000120: 24e2 f998 5c7a c03f 068f 9bf7 ead6 813f
00000130: afc6 e9b3 af1a 903f dc45 f080 0c17 733f
00000140: 5502 9146 d09c 91bf f787 4cbc 03a6 97bf
00000150: 2889 b04a 8a3a 8dbf 80cf e18b 73f3 7d3f
00000160: 87de 5950 b6e5 873f 6b41 daef a963 ae3f
00000170: 2e63 92fa a797 393f f50e 934d f132 7abf
00000180: 5703 1685 283f 85bf 4d09 2ea5 66ce 79bf
00000190: 201b 5c12 6a15 89bf 42aa 5796 766d 8ebf
000001a0: 8cea 5ce6 d770 61bf 42de 5b50 46ec a03f
000001b0: f7f3 d3ac a65e b63f 247e 0acb 0a4d 9d3f
000001c0: 5964 0698 363a a03f ba88 7656 0a14 a03f
000001d0: 7f89 abb2 8b5b a63f 9972 fd80 551b ab3f
000001e0: afb5 3d7b ac7b ac3f 1fdd 47b0 4441 b03f
000001f0: 1771 b0c4 98dd c03f 677f a5ab 6815 c83f
00000200: 10ff 3649 18a9 b3bf b33e f7b1 d3e5 a9bf
00000210: 0fd3 44b0 3234 b0bf a710 fa26 a74a 81bf
00000220: f555 bc42 ac15 733f 53b5 fd80 349d a7bf
00000230: 5f08 81b4 27bc aebf 559e 0992 7c3a b8bf
00000240: 060d 16ff 71cf 9fbf 5fff e610 ce3b a63f
00000250: 807b ecf9 6c2d 7e3f 2b6e b1a7 76c8 9dbf
00000260: 553f d818 a261 93bf 6dc7 9642 bd80 91bf
00000270: cac9 bcbd f513 9cbf 211e e261 bf72 a93f
00000280: 3f0b 71a1 0364 c03f 4706 ab04 0d12 cd3f
00000290: e37a 5141 d33a 24bf 42ea 469c 487b 21bf
000002a0: 06d4 2b86 321e 363f c98d b4cd 0f0e 58bf
000002b0: 88cb 68f0 e693 1c3f aba4 65d7 5bdd 623f
000002c0: 595c b9ab aa3b 72bf 433a 55a6 6e1d 57bf
000002d0: 1b64 0a74 8846 7c3f
0.005740396715614666 -0.012802568587260471 -0.015065040342428976 -0.0016310895635181706 -0.00664510916643618 0.0003168172753813745 -0.0015164226104181944 -0.004228643177679897
0.001845420596829555 0.00443999367105628 0.014453808649942732 0.009879004042724241 0.011962825483657276 0.018628153558982192 0.02207772954100802 0.02536617250047674
0.036027587203114796 0.044570504675548225 0.04876502996778896 -0.04898147508215358 -0.05715996504748981 -0.060459775849967264 -0.03362442372798949 -0.049017623404504544
-0.01949377763472936 0.040486201029942236 0.10322870236173344 0.20626670589048302 0.008553553679317535 0.00356447530036751 -0.018464824387491998 -0.016252507330117738
-0.02610305879466176 -0.029660113353017693 0.0007746633543689145 0.06978041720487532 0.12873418302093953 0.008710704499612653 0.01572680030444101 0.004660652964064007
-0.01719975882247334 -0.023094232910018744 -0.014271812824578747 0.007312251427823102 0.01166860993110609 0.059354124573590315 0.0003905091385348222 -0.006396238889639018
-0.010374371110403109 -0.006300354917473006 -0.01224787586717252 -0.014857222045027933 -0.002129003219036923 0.0330526326269447 0.08738176078254854 0.028614205019606
0.03169413190625709 0.03140289597946962 0.043667188225088964 0.052942916866162544 0.05563105587394134 0.06349591544846021 0.13176259616819472 0.1881533468358569
-0.07679893290969297 -0.05058156535562599 -0.06329647830427752 -0.008443170430162473 0.004659340756707921 -0.04612125467870478 -0.06002925947588333 -0.09464243474359908
-0.0310647785131666 0.043425025523446285 0.007367540062459876 -0.029085020051168236 -0.018927128569031854 -0.017092663945454434 -0.027419891076712756 0.04970357961525119
0.12805219061746162 0.2271133683007511 -0.00015434101865970722 -0.00013337384565466527 0.00033749326227844355 -0.001468196328297521 0.0001090154365577645 0.002302817704891232
-0.004451433832932749 -0.0014108257831427918 0.006903203030241857
