hw1/model.npy (npy, 1432 bytes, 1 tensors)

array f8 [163]
00000000: 24ab 67a7 6c3b 383f 3dad 7271 5e4b 82bf
00000010: af7d c88c 4ae1 70bf 4b36 c1e1 4f78 803f
00000020: dc56 9b58 2fe3 65bf 52e8 ff5b 3cda 5fbf
00000030: a3e2 d85d 814c 80bf 0205 339b 5319 8bbf
00000040: 4ef3 ae3c d803 8abf 7890 597c 8afe 70bf
00000050: 9628 1f96 2c7d 323f 8529 3af7 80ab 43bf
00000060: 29bb 8710 3e8d 3dbf a5c3 3358 bc3a 453f
00000070: 3a59 1979 fa61 2b3f e79f 454f 69b0 013f
00000080: 6420 a38d 8152 503f 127d a44d ece8 5d3f
00000090: c786 31ec 985c 513f 5f7d 4792 7f84 55bf
000000a0: dcb0 f8d6 46da 61bf 23f6 2119 b88c 57bf
000000b0: ee5a d593 16fd 57bf 8f22 7c82 63c0 57bf
000000c0: 2b3e 87ad f2de 37bf dd1a d2c3 10af 4c3f
000000d0: 264a 3b8f 4ba5 5b3f 7a1f 4b4f 7c11 5a3f
000000e0: 186a 6313 e7a0 48bf 1dc1 3812 f169 5fbf
000000f0: 5aa4 73d5 7e4c 54bf 5f0c 9328 a510 53bf
00000100: 23b2 8888 e8a7 48bf 6a0e 9c81 fa9e 4abf
00000110: 0d2c c42f 1f92 253f e5aa 0e51 8ed5 523f
00000120: b66f 85e3 3762 5b3f fa63 eeea 504b a2bf
00000130: ff56 da57 7cfe 8abf 8722 b528 4d0c 9d3f
00000140: 6006 68f3 adc5 863f 13ff 2ac5 acf4 593f
00000150: 58d0 96ce a017 863f 1d0a 11bf 2e1e 833f
00000160: b94d 9d94 88b9 94bf f6a3 ba32 c0f1 6b3f
00000170: 8c64 f7a5 40b4 993f 7d52 6ffa ab4b 96bf
00000180: 7847 e350 ab76 a3bf 6ac0 de3d 0e84 9fbf
00000190: 118a 9b11 9a84 9fbf b5ca e256 05d7 a0bf
000001a0: 621b e7f0 b137 9e3f 0087 76bc 1f4b af3f
000001b0: 174b da13 1af8 a53f 9b74 d3fa 1728 8ebf
000001c0: eed6 d97f c3d1 a0bf e002 4f3e db00 86bf
000001d0: 62b0 7bbf a14c 94bf eeab f485 dbb9 9bbf
000001e0: 6bed 90e8 4806 97bf e6c7 22d4 68b4 a23f
000001f0: 9287 b306 f804 a53f a59b cd22 d295 a73f
00000200: 8314 5fb6 39aa 94bf 453c 475f 9542 933f
00000210: 9826 a2b0 0fba 67bf df30 0eb8 9788 97bf
00000220: 4284 291b 3a07 9cbf 5824 b26a a96b a0bf
00000230: 593c 19e4 8c9e 53bf 6b6f 369e 2ace 55bf
00000240: 57f9 c168 9bd7 b03f feff d47a e282 aa3f
00000250: 2166 28ce d496 5b3f 6a70 e5bf da51 92bf
00000260: c05d 7b65 07bf 903f 9166 0e73 ad13 9bbf
00000270: 6a5e 86d8 bbab 78bf 2aa3 44ba 9c50 91bf
00000280: 0172 f4dc dc82 b43f 3ea2 df52 0919 b33f
00000290: f0d2 87f2 0fc8 bebf e13b b78c c735 ac3f
000002a0: 5a4b 308b d274 b6bf b1ee 5fa6 5274 b13f
000002b0: 7f54 e302 e5e3 d03f c4da 4030 c3af 9ebf
000002c0: f905 d24c 2827 67bf aee8 78cc f5ed b4bf
000002d0: 4fb6 ae7f 9e46 e53f e8b2 7ae6 54be 78bf
000002e0: 9645 de4e ef48 6dbf 363a 88e8 8d13 74bf
000002f0: a359 47f4 310b 6bbf b0a9 850d a18d 62bf
00000300: f40d e4ee 606c 72bf 8fe2 b242 264a 76bf
00000310: fcec 145f d06a 68bf 7a35 2cb9 38c0 61bf
00000320: 47ec 93da 68a8 7d3f ccb1 885b 7e6b 7abf
00000330: 8eb7 a174 2157 563f 5dd2 2c02 27c9 4cbf
00000340: 4539 a61d 9227 59bf a05f 6b79 6a64 06bf
00000350: 539f 927f e48b 7f3f ea1f 15a0 6f3d 80bf
00000360: d711 211d 3a0f 7d3f a0fc 5592 b8b8 5cbf
00000370: 04e0 00a6 e8a1 63bf a365 913b 62e8 7abf
00000380: 0263 ca12 6727 7dbf 673a b97c ad54 7dbf
00000390: 93ea c196 9e8e 82bf 063b fe33 cb67 7dbf
000003a0: f3e8 e9b5 cf1e 72bf 2c97 ea0a e1ae 673f
000003b0: 8ffb 2706 e028 4abf 2367 36b9 3562 67bf
000003c0: 791b b85a a0d2 56bf 809d d0e3 08cb 4bbf
000003d0: f59e 01e5 65ce 45bf 4c67 3a05 f822 42bf
000003e0: d0e8 7478 9a0f 593f e055 8d2a c332 6b3f
000003f0: bd08 1951 403d 693f 22e0 777b d433 773f
00000400: e4da 1aeb 231e 82bf 7e63 746e e65d 723f
00000410: 8b33 2194 e0c3 6b3f 5d83 442a 9d93 6d3f
00000420: c69a 652b 9266 6b3f fb05 0b8a 0783 6b3f
00000430: ca7e 0678 a63b 71bf 4cf6 4d5e 9cf9 363f
00000440: 0d09 053d 7fd3 743f 179e c1ea 485f 633f
00000450: 3933 5ada 9f47 80bf 9ce8 14fc c94e 6fbf
00000460: fbc3 b371 c72b 79bf ccd0 c4ed 993f 27bf
00000470: 7607 06fd f4f8 623f 8b85 3275 1cc2 3a3f
00000480: f828 1b2c ec22 433f ca21 f54e 20de 7f3f
00000490: 5cc2 e6ea bb0d 693f 337d 9a01 6c02 603f
000004a0: 06ce 7dae 4009 663f 7ff2 5e61 1c1b 66bf
000004b0: dd37 f195 c6f3 583f 0094 0160 34ab 8ebf
000004c0: 25ad 8f7b a585 89bf f3ef 52a4 66de 82bf
000004d0: 6aab 34d7 8b32 773f e9f3 0f2e f372 613f
000004e0: 4b09 3352 c07b 733f c88e bf7e 4b31 713f
000004f0: 351d c187 0fdd 693f b687 bffa 8d59 30bf
00000500: 21ec 21fd 969f 76bf 6066 99bd 1abf 69bf
00000510: b961 9afb 0679 7bbf
0.0003697529095051824 -0.008932817303807123 -0.0041211044413382155 0.00804197700213218 -0.0026718067864334016 -0.0019441213080413533 -0.00795842235230399 -0.01323190038090383
-0.01270264563742676 -0.004148999175957006 0.00028211916480514723 -0.0006002788272366088 -0.00045092358825986556 0.0006478709841798337 0.0002089136365152707 3.373929385724877e-05
0.0009962334793716327 0.0018255527161910629 0.0010596745858254973 -0.0013133283438192184 -0.002179277762271876 -0.0014373586496100397 -0.0014641495211741812 -0.0014496776365736962
-0.00036424088241646346 0.0008753616199478027 0.0016873586545683799 0.001591082950811866 -0.0007516029643526738 -0.0019173483095862927 -0.0012389410601889778 -0.0011636364818492712
-0.0007524381081274772 -0.0008124087500793302 0.00016457205482142725 0.00114954851253895 0.001671366289960991 -0.03573086612522754 -0.013180705481584008 0.028367238626091165
0.011119231215164394 0.0015842139443264555 0.010787254623984818 0.009334912496460618 -0.020239004202563502 0.0034111741895981275 0.02510167134264356 -0.021773039970712994
-0.038014749168396145 -0.030777189756634384 -0.030779273342782135 -0.03289047895068135 0.029509334877526945 0.06112002540181827 0.042908492015291504 -0.01472491010866355
-0.03285036979370469 -0.010743820990570752 -0.019823577224926565 -0.02707617764569286 -0.022484912104329718 0.03653266515301805 0.041053534334209676 0.046064917324478295
-0.020180608516757303 0.01880868333847398 -0.0028963381237801615 -0.022981997116901517 -0.027371318729255252 -0.03207139422836097 -0.0011974693192262824 -0.0013308921996672783
0.06578990275918294 0.051779820913452554 0.0016839101959987906 -0.017890375101487534 0.016353717392886713 -0.026442251346088744 -0.006023153088242953 -0.0169090737046275
0.08012180704503892 0.07460077546387198 -0.12024020835071858 0.05509780495378159 -0.08772006891403575 0.06818119584925843 0.26390958101303136 -0.029967355556631117
-0.002826288901417892 -0.08175598375319978 0.6648704999731282 -0.006040889398417383 -0.00357481708392333 -0.004901460961731765 -0.0033012366932140976 -0.0022647996485620422
-0.004497889180359749 -0.005441808181040244 -0.0029806203607712894 -0.002166853702312008 0.0072406860210732565 -0.0064501701204275445 0.0013635470118304768 -0.0008784714194463684
-0.0015353133117944212 -4.270982679138659e-05 0.007701771327596268 -0.00792967994006229 0.00709459973046874 -0.0017530252892752687 -0.0023965400614791594 -0.006569274636683361
-0.007117655401679414 -0.007160833057766248 -0.009061087585213989 -0.007179063570119442 -0.004423915261776867 0.0028910060276129603 -0.0007983297221584184 -0.002854447296795197
-0.0013929906807576815 -0.000848178234837002 -0.0006654737026225698 -0.0005534850156039078 0.001529599046831854 0.003320103820821471 0.003080964678504021 0.0056646633233797
-0.00884655057175849 0.004484081385521031 0.003389299993648403 0.003610426867581769 0.00334480808958246 0.0033583781481361075 -0.004207277554456554 0.00035057132327396124
0.005084511780582679 0.0023647712860570646 -0.0079491127501342 -0.003821749211650417 -0.006145266607959772 -0.00017737154019815125 0.0023159775666394223 0.00040829844255981716
0.0005839970765120486 0.007780195431515266 0.0030583067193322 0.001954279851659324 0.0026899588883055906 -0.0026984743408021146 0.0015229644120782128 -0.014974984340549113
-0.01246194156006781 -0.009213258638162336 0.005663439037827492 0.0021300077064538747 0.0047566902678134 0.0041974019077064065 0.0031571677518830396 -0.0002494784955598921
-0.00552329044341618 -0.0031428835180065534 -0.006707217480333255
