hw2/best_model.npy (npy, 824 bytes, 1 tensors)

array f8 [93]
00000000: 12c1 7918 2667 22c0 6344 47b8 a505 3040
00000010: f7ac 9fef 2ba3 4fc0 07b1 fa58 0821 e7bf
00000020: 1dfa 2095 5b75 ecbf 6411 83e8 cf20 ccbf
00000030: c83c a89b adab 4fc0 ab10 ca1e e3fb e9bf
00000040: 4395 324d 5ac0 f0bf 9aca fa78 cff0 dcbf
00000050: d8de 3940 14ef f23f 9289 5a9f 7720 f63f
00000060: 11ea 9774 4349 0740 e37e c21c 1141 dbbf
00000070: 3ac3 9435 87e6 c93f c068 7993 85bb 0840
00000080: 9adc 6281 c753 c6bf 5f10 5e76 3b7d ed3f
00000090: babd 0002 b84b 0240 80a9 e6cf d476 62c0
000000a0: 4433 9489 4f7d ccbf 67f1 6a09 3d5f e23f
000000b0: 1fff 030c 314c f63f 8ac7 081b 4409 0040
000000c0: 53f1 1839 0c44 c63f 6b4d 76b2 d8d5 f33f
000000d0: 10f2 1a31 6c59 0140 961a 5e8e d907 933f
000000e0: 1e40 d054 632d 0940 aa0e 4c44 e3a0 c9bf
000000f0: 81a6 0559 b09c dd3f d77a f06c f8e5 d43f
00000100: aca5 b24b dcc0 f2bf 3e40 e2fc 2fb9 f6bf
00000110: e2e8 6d5c 76b9 da3f 0916 bf20 c511 f1bf
00000120: 93d3 d15d 493b e3bf c75a 8611 f718 eebf
00000130: 70c6 8eb1 f6c7 d9bf 6c1a ff11 56d7 d7bf
00000140: 6f96 060d 7d74 d2bf ba47 e30b 225b c53f
00000150: 5cf6 305c 1df0 20c0 e503 3da4 6285 ddbf
00000160: db5c 86ea 10f2 dd3f 78b7 fec9 065c d63f
00000170: f321 62af 9645 ee3f 320c 7f46 b0fc cf3f
00000180: 63cb b452 1c92 3cc0 f9d3 0787 1296 26c0
00000190: 58f3 4d1e a3e8 1c40 8fe1 24ae 2081 e43f
000001a0: e071 2bed 6b05 94bf d0f3 fce9 2766 dcbf
000001b0: d712 a537 9ea2 fa3f 5f38 2e71 9ead e4bf
000001c0: 18b2 6170 5b2c e0bf 1011 eac0 eab0 c03f
000001d0: 2c02 8bd5 7101 f4bf 25c5 3e38 b871 e8bf
000001e0: 88f7 1738 e1ec d13f d6ed bf01 ed01 edbf
000001f0: e66e 2a65 327a dc3f 11cb a5a6 ba99 d83f
00000200: b451 c371 b182 c03f 2496 f7d7 0175 eb3f
00000210: 0bd0 f228 fdb0 e73f e89b b7bb 6696 b03f
00000220: 3840 2e60 401d febf cfc6 bdb1 5dd7 dbbf
00000230: 636f c35b 488a cf3f a13a ab1b c56d efbf
00000240: 9ab5 24c5 5023 d93f 2936 3fe0 295a 35c0
00000250: 6f95 9c23 9b59 9140 1cdc 7751 db09 4240
00000260: 3ecb 22ea d092 13c0 f83f 9ce0 812f e7bf
00000270: c590 96ca a28f a4c0 5ef1 4ac3 17a3 1440
00000280: 9ab5 24c5 5023 d93f 9680 c95e b199 1b40
00000290: 5bc6 0b2f ab32 94c0 8f9b d766 6a3a 3ec0
000002a0: 6ae1 5b2a 4d8d 0c40 6f9c c1d7 9c78 7640
000002b0: 3017 8c33 5f7c 2fc0 67e8 b92b 8fc9 0b40
000002c0: 641f c043 6137 9140 43a5 dd22 30b4 3340
000002d0: 25d9 b6ce fc11 19c0 0c4f 3cf0 c6c8 9540
000002e0: 8744 c305 7407 20c0
-9.201462521421977 16.022059934043124 -63.27477832123434 -0.7227823007465596 -0.889325896517963 -0.21975134709476685 -63.34123559679716 -0.8119979478219838
-1.0469611182719099 -0.4521979028169568 1.1833689221220336 1.3829265808823021 2.9107731922970363 -0.4258463650566979 0.20234766117348518 3.091563369886984
-0.1744317418831301 0.9215371429313669 2.286972060821168 -147.7134780411834 -0.22257417886467057 0.5741257842960693 1.3936014623031452 2.004524432378223
0.17395165241203844 1.2397086116005436 2.168663390765012 0.018584632219723028 3.1471621156743046 -0.20022240481204295 0.4626885289531871 0.3265362800465658
-1.17208509034604 -1.420211780383411 0.41756972338011 -1.06683838645529 -0.6009871323027361 -0.9405474989206021 -0.40282981242771765 -0.3725180793520966
-0.28835989257854683 0.16684365826091413 -8.468973999955033 -0.46126619376087624 0.4678995409280568 0.34936685300896597 0.9459947038131403 0.24989894334984936
-28.570744675769117 -11.293110103326386 7.2271847472264525 0.6407626534701637 -0.019551931715669713 -0.4437351021804803 1.6647016690850955 -0.6461937151486942
-0.5054146952584828 0.1303990785564868 -1.2503527013324272 -0.7638817881144503 0.2800829932965532 -0.9064850839781069 0.4449583042094062 0.3843828799646625
0.12898843817550942 0.8580331056697941 0.740355091073526 0.06479494173946387 -1.8821414715821572 -0.4350198970561054 0.24640755158076919 -0.9821496525199401
0.3927804875591733 -21.35220147650958 1110.4015030351836 36.0770055613759 -4.893375070928242 -0.7245492350502891 -2631.817951874897 5.15927033562579
0.3927804875591733 6.900090676354145 -1292.66717165373 -30.22818606151446 3.568994837693187 359.53829169873546 -15.7429138287076 3.4734176078900876
1101.844985010067 19.7038595000388 -6.267565946493311 1394.1942758010146 -8.014557056509387
