hw2/best_model.npy (npy, 1136 bytes, 1 tensors)

array f8 [132]
-4.799497491461024 16.751462597372182 -63.24255336728129 -6.412269929332938 -6.615253469429326 -5.970461771808949 -94.55491960989991 -6.514563284964195
-1.7082086719230898 -6.16907103947567 -5.719337721199296 1.1065154898131855 1.5554805518127586 2.300643053025502 0.6460238526182186 0.9908757706191952
2.4003471957242164 0.7932842806205757 1.3165128072398635 1.9989234343905575 -108.8491378791649 0.9224042216888696 1.155390193071995 1.8582655024649173
1.481059449247979 0.840616898079687 0.745073860287763 1.5548335401925086 0.6460238526182186 1.5554805518127586 0.840616898079687 0.9908757706191952
0.745073860287763 1.9989234343905575 0.7932842806205757 1.155390193071995 1.5548335401925086 2.300643053025502 1.8582655024649173 2.4003471957242164
-108.8491378791649 0.9224042216888696 1.3165128072398635 1.481059449247979 7.301199806020807 4.954414412844483 4.834963229112837 5.511032542770842
4.9578863219650735 8.29815489558177 4.7780415082372105 1.0466535703738276 0.9166777260131155 -0.6040665753908088 -0.8800910412186015 -4.487204456272301
0.9380621821276944 -0.4929988280792131 -0.06846893849651316 -0.4008281122812657 0.15366949077596345 0.26891235481008396 0.27007501438696296 0.7962525484041902
-4.422908156571855 0.5824794623384973 5.161622890879427 4.97914553913442 5.9760509777050626 5.35172503566334 6.782918391321044 5.797648779444013
-5.432165064618981 -5.056657484103951 -5.287627783182699 -4.9557166280317215 -5.688970738518782 -3.9765959266607234 -3.1120338148256113 27.358237583235656
-18.326640425421857 7.331209526101325 -2.13127337389434 -2.6907765018915324 -3.3234809548623354 -1.5328915847620155 -3.7256334087682177 -3.2490513319658403
-2.59105901610995 -4.063912340366422 -3.472066524926756 -2.569752145968587 -3.7852511491734027 -2.2496470541813967 -2.329392515434051 -2.7128764337092792
-1.9455537023989098 -2.262618792553608 -3.0456432416679147 -4.704116713554757 -2.5745117021967534 -2.3032114559913803 -3.4446571864549576 -63.3102404286843
-3.098914392117814 -2.8478311510544843 -2.4867191706279472 -3.655346741546634 -3.2279124731556297 -2.6628185671959272 -3.1532000459455967 -3.480269399357099
-2.3849767351452593 -13.274675525565689 -2.0663017138017787 -2.3423331016207984 -4.411103487245094 -2.910727404865174 -3.1409158128536143 -2.701702182715968
-0.9670576191448911 -2.8741514038006994 -2.823139111214055 -2.6495929688133395 -26.557716567095607 64.54494789023755 73.95071031660781 -5.069579294918999
11.442872721395391 -82.36958264239607 -59.027701294081794 -0.9670576191448911
00000000: 8e3c 6c78 af32 13c0 78e1 4fda 5fc0 3040
00000010: 0001 1efd 0b9f 4fc0 d26f 9e16 2aa6 19c0
00000020: 47cc 6701 0576 1ac0 28c0 0fbb c0e1 17c0
00000030: 781b 8acd 83a3 57c0 fe92 82ad e90e 1ac0
00000040: c573 ca9d d254 fbbf b2fe 64f5 20ad 18c0
00000050: 1152 4d11 9ae0 16c0 a83d 1496 49b4 f13f
00000060: e998 3993 3fe3 f83f ee1c 848b b767 0240
00000070: 2bcc ed36 3aac e43f e9a9 a61a 41b5 ef3f
00000080: 5272 053b e933 0340 c147 36b7 9562 e93f
00000090: 0fc4 bdbb 6f10 f53f aba5 9e23 97fb ff3f
000000a0: b733 6746 5836 5bc0 ab12 bbdb 5584 ed3f
000000b0: 42d0 556d 7a7c f23f 01f3 859b 74bb fd3f
000000c0: be3a 9f64 6bb2 f73f 79f3 b668 55e6 ea3f
000000d0: 154b e122 a5d7 e73f 939c 5d22 99e0 f83f
000000e0: 2bcc ed36 3aac e43f e998 3993 3fe3 f83f
000000f0: 79f3 b668 55e6 ea3f e9a9 a61a 41b5 ef3f
00000100: 154b e122 a5d7 e73f aba5 9e23 97fb ff3f
00000110: c147 36b7 9562 e93f 42d0 556d 7a7c f23f
00000120: 939c 5d22 99e0 f83f ee1c 848b b767 0240
00000130: 01f3 859b 74bb fd3f 5272 053b e933 0340
00000140: b733 6746 5836 5bc0 ab12 bbdb 5584 ed3f
00000150: 0fc4 bdbb 6f10 f53f be3a 9f64 6bb2 f73f
00000160: 03af d1b8 6d34 1d40 0dfe 0703 52d1 1340
00000170: d89b c999 0057 1340 e891 691d 4c0b 1640
00000180: bc80 e826 e0d4 1340 fe54 2bc2 a798 2040
00000190: c23c c3e9 b61c 1340 a1f4 6fd0 17bf f03f
000001a0: d955 c686 6c55 ed3f b420 3d6d 8354 e3bf
000001b0: db2a f1af b429 ecbf b79e 98b9 e5f2 11c0
000001c0: 7e4a 3bfb 9a04 ee3f 4d42 e4f4 4a8d dfbf
000001d0: 6165 a22b 2e87 b1bf 5e30 64f4 2aa7 d9bf
000001e0: 574b a31e 71ab c33f 0394 592a dc35 d13f
000001f0: 1f8f 90b6 e848 d13f be15 d89f e67a e93f
00000200: 45c0 f6d5 0eb1 11c0 7fbc 2af8 aba3 e23f
00000210: ce72 9a78 80a5 1440 2e6d d220 a5ea 1340
00000220: 66e3 51e8 79e7 1740 156f 959b 2a68 1540
00000230: aca4 d85b b521 1b40 1ba0 75d7 ca30 1740
00000240: 8b0c 8c7a 89ba 15c0 5033 656b 043a 14c0
00000250: 3fc3 c8e5 8726 15c0 fe8e 3661 a7d2 13c0
00000260: 475b 978b 81c1 16c0 2551 7386 11d0 0fc0
00000270: e7c6 15fc 71e5 08c0 fa31 5075 b55b 3b40
00000280: 08bd f8b4 9e53 32c0 57ea 0a97 2853 1d40
00000290: b5b1 fd0d d90c 01c0 5cc1 a3d4 b586 05c0
000002a0: c519 d02e 7d96 0ac0 0edd 8d53 b986 f8bf
000002b0: 205b 7ce3 18ce 0dc0 568c ee9f 0efe 09c0
000002c0: db95 4126 7dba 04c0 09bd 8e3c 7241 10c0
000002d0: 38c6 70d0 cac6 0bc0 5216 8e36 da8e 04c0
000002e0: fbc4 26c1 3148 0ec0 c403 6af4 46ff 01c0
000002f0: ffb0 0a8b 98a2 02c0 b7f6 468f f8b3 05c0
00000300: fba3 46eb fc20 ffbf 7ba9 aae1 d719 02c0
00000310: 19fa 3134 7a5d 08c0 8323 c5f8 03d1 12c0
00000320: b4d5 6097 9998 04c0 4f0b ba20 fa6c 02c0
00000330: 180b 4e6d a88e 0bc0 4d8c 57f5 b5a7 4fc0
00000340: 73ff f9a0 93ca 08c0 ed78 d2b2 5bc8 06c0
00000350: 5a77 4105 cde4 03c0 19dd b36e 263e 0dc0
00000360: 676e 54c6 c3d2 09c0 004e 2ad2 734d 05c0
00000370: 02a8 18f2 c039 09c0 0111 9c7b 97d7 0bc0
00000380: a25b b9ae 6e14 03c0 eba1 3e45 a28c 2ac0
00000390: 4294 6331 c987 00c0 8765 1e23 19bd 02c0
000003a0: f9f4 0350 f8a4 11c0 28bc 1b73 2b49 07c0
000003b0: 7290 3d78 9820 09c0 0d60 b208 169d 05c0
000003c0: d565 f2d1 22f2 eebf a99c 5817 43fe 06c0
000003d0: 72c8 55f5 c995 06c0 651e 66cc 5d32 05c0
000003e0: ef1c 5083 c68e 3ac0 0ca6 1d6d e022 5040
000003f0: 3973 1570 d87c 5240 949f 70cb 3f47 14c0
00000400: 115e 9d36 c0e2 2640 aa90 f43d a797 54c0
00000410: b011 4cb7 8b83 4dc0 d565 f2d1 22f2 eebf
