hw2/best_model.npy (npy, 872 bytes, 1 tensors)

array f8 [99]
-9.24390938553444 16.847483819849113 -63.00595541640404 -0.717583536141997 -0.8790802456895112 -0.22325586271694176 -63.30345503201738 -0.812563170776428
-1.0401974457496486 -0.44879452151769933 1.1916789190825734 1.3613865411739114 2.906810291947743 -0.44792106716472163 0.18484284201323384 3.0831644382700913
-0.190094313624425 0.9070016976052188 2.282651215217509 -145.6504307296612 -0.2179570111924465 0.5666197059686428 1.3858303935425413 1.9982425025594739
0.1818781457801867 1.2330594523185174 2.172977487142799 0.02210314878034462 3.148360705657025 -0.2060866925324918 0.45400452362376564 0.3356623614229787
-1.1795941924471864 -1.44910380695774 0.41348861891469635 -1.0846815829843492 -0.6022026360602569 -0.9371808734981626 -0.4051743198429986 -0.3751164896604435
-0.2869254501706016 0.167813350131275 -9.968124981003935 -0.4527588212350329 0.4733402137240963 0.35500688923784224 0.9482774438316901 0.2530784632925729
-40.54406262970134 -13.326992167126432 7.206363219198541 0.6440499762293646 -0.027027289920659912 -0.4323681541059263 1.6774795647921816 -0.64265803692506
-0.5053450782920623 0.13588761824385423 -1.2865177111195572 -0.7633338674770922 0.3099191931489102 -0.8960904255931904 0.45119838627995246 0.38917740014235735
0.11223030956897764 0.8771338419773006 0.7342384289969413 0.06285461183565098 -1.8568069524708615 -0.43784254094464126 0.24885718229827455 -0.9913149969135326
0.39185604482145664 -25.458127481589784 1330.3927232950027 46.72536702046658 -4.8769222349564565 5.730015801073619 -2945.026730703348 -0.5181191246662743
0.39185604482145664 9.96422365778901 -1845.6261555162118 -52.75866718396088 -6.168345811187011 -161.0825944899536 -31.320449504184854 -6.828054327431133
614.6568446681853 42.77817867449108 7.920019832915213 923.7314169336597 81.2917037091938 12.770766299089617 1045.3244805005193 26.48482965710154
-13.149710986611366 1092.1861314410444 -121.19459215296642
00000000: a21d e4b0 e17c 22c0 1f24 1ab3 f4d8 3040
00000010: 3f58 a725 c380 4fc0 d917 7cbf 71f6 e6bf
00000020: 9d79 39e5 6c21 ecbf 4c38 81ea a593 ccbf
00000030: 2029 4f9d d7a6 4fc0 fc66 8d7a 8400 eabf
00000040: 230a ae13 a6a4 f0bf 1bb8 22a8 0cb9 dcbf
00000050: 31ad 0cea 1d11 f33f 74e7 f840 3dc8 f53f
00000060: f1bb 1cc1 2541 0740 8d5c aa1f bdaa dcbf
00000070: 3b5b ac24 eea8 c73f 667b f41d 52aa 0840
00000080: 9513 16ae 0255 c8bf 4d30 946c 2806 ed3f
00000090: 5845 eca3 de42 0240 aa06 1b54 d034 62c0
000000a0: 09b3 80ed 03e6 cbbf 4ff1 4ca6 bf21 e23f
000000b0: a116 a17d 5c2c f63f ae85 5f21 cdf8 ff3f
000000c0: add3 fd77 c847 c73f 0fb5 5b8c 9cba f33f
000000d0: d9c7 5105 4262 0140 aace 9934 35a2 963f
000000e0: 9d77 d6bc d72f 0940 a0af 487a 0c61 cabf
000000f0: face 4cfd 680e dd3f 2ed4 33fc 7d7b d53f
00000100: 8ecb f128 9edf f2bf 0d48 3679 872f f7bf
00000110: de6f e0f7 9876 da3f 53dc 5713 db5a f1bf
00000120: 8f33 6e76 3e45 e3bf f28f 43be 62fd edbf
00000130: fbe6 3945 60ee d9bf 170b d297 e801 d8bf
00000140: 25dc 3790 fc5c d2bf e5b0 5269 e87a c53f
00000150: 7eb4 d713 aeef 23c0 bd84 8b22 00fa dcbf
00000160: bce7 74c0 344b de3f 0566 c8d0 6eb8 d63f
00000170: ac54 19f0 4958 ee3f 6477 ca02 7032 d03f
00000180: 81c5 20d8 a345 44c0 5fb6 6f84 6ba7 2ac0
00000190: 5538 36e1 50d3 1c40 5ea1 1cb2 0e9c e43f
000001a0: 9627 3cb9 0aad 9bbf bbe0 6d7a ebab dbbf
000001b0: 0bda e7cf f4d6 fa3f a559 6396 a790 e4bf
000001c0: dcaf 0e71 c92b e0bf b1f3 24f6 c364 c13f
000001d0: 7dbb 6f98 9395 f4bf 30c9 9725 3b6d e8bf
000001e0: b38b be4f b7d5 d33f a3ce 05d4 c5ac ecbf
000001f0: cc24 4532 6fe0 dc3f ec09 7d53 48e8 d83f
00000200: b2fd 3725 20bb bc3f 1d3c b0fd 7a11 ec3f
00000210: d643 0097 e17e e73f 2fa5 3c66 3d17 b03f
00000220: 7e90 fd34 7bb5 fdbf d6e7 89b8 9c05 dcbf
00000230: 2743 ac59 8dda cf3f 14e5 783a dab8 efbf
00000240: 52e0 4f60 2b14 d93f b4d3 b6d7 4775 39c0
00000250: a831 0e26 92c9 9440 1e40 97d3 d85c 4740
00000260: c417 01e7 f781 13c0 9fb2 1c43 89eb 1640
00000270: 5c91 a5af 0d02 a7c0 21f6 fb8e 6e94 e0bf
00000280: 52e0 4f60 2b14 d93f 7277 28b9 aeed 2340
00000290: 5c61 e92e 81d6 9cc0 88d4 9b01 1c61 4ac0
000002a0: 02de 25d8 62ac 18c0 c725 339d a422 64c0
000002b0: 4d7e 8cfa 0852 3fc0 1083 3e79 ed4f 1bc0
000002c0: 4303 c737 4135 8340 21b1 da5b 9b63 4540
000002d0: 3d2b d8ad 19ae 1f40 790e 1ff1 d9dd 8c40
000002e0: fec6 0846 ab52 5440 d1e5 5ee1 a18a 2940
000002f0: aec7 9d44 4c55 9040 cb61 e1cb 1d7c 3a40
00000300: 07b2 1eeb a64c 2ac0 2c90 3d99 be10 9140
00000310: 2343 a532 744c 5ec0
