hw2/gen_model.npy (npy, 1120 bytes, 1 tensors)

array f8 [124]
1.1482462553407051 -1.9050290111246988e-13 -2.3466190768052147e-14 6.438149656574047e-15 4.3035403831936945e-14 -8.658918949142855e-14 1.4048001315201765e-13 2.2007973549045923e-14
2.133940520392579e-14 -2.4296739088610055e-14 -9.894871710189331e-14 -1.1177746916488971e-13 -7.088138371696021e-15 -1.3394090912589078e-13 7.006232636323781e-14 3.1828141267179333e-14
-1.616818874417483e-13 6.479481855842881e-14 2.663946623980618e-14 -1.0210297361490866e-13 6.488425828156703e-14 4.428585188278478e-14 2.0300148458881305e-14 -5.647319698407783e-14
2.0589553169797615e-15 6.238143531763827e-14 8.195789182005984e-14 -7.90628827070244e-15 7.006232636088778e-14 -7.088138363955244e-15 6.238143532089444e-14 3.1828141282043625e-14
8.195789181639053e-14 -1.0210297367113894e-13 6.479481856596861e-14 2.0300148448863453e-14 -7.90628823598191e-15 -1.3394090912200209e-13 -5.647319705139906e-14 -1.616818874717933e-13
6.488425828676408e-14 4.4285851884453715e-14 2.6639466345777922e-14 2.0589553239066856e-15 -6.779414239481064e-14 2.3467463928473056e-14 3.806940013209425e-14 3.0640135137803363e-14
5.127882014278115e-14 -1.358351796510763e-13 6.017355525985873e-14 -1.364757669055741e-13 -7.663076726530203e-14 1.0573918800151261e-13 1.3691849042616764e-13 -2.1267894782686003e-15
-7.817871260095985e-14 2.3188901431259e-14 4.798533964357352e-14 5.6772976568353054e-14 4.105712518294034e-14 -2.747981289841159e-15 1.3507412692496823e-14 -7.23330832437272e-14
-1.2380508205765563e-14 -4.429591244305193e-14 5.6627289746611254e-14 6.089474956318791e-14 8.76497367331153e-14 -7.974108443656894e-14 -1.988153192926065e-13 7.338457810535373e-14
1.778158815591452e-14 -2.1319513055864924e-14 -4.959816436969931e-15 -1.5393157834642458e-14 2.389088002466769e-14 3.053693800811329e-14 -3.0536937900390197e-14 -8.1357459096069e-13
-4.184193875724266e-13 -2.9460640151652517e-13 -1.0295560808012487e-13 -1.7143530461920518e-15 -2.355922993367909e-14 -1.742189545608528e-13 7.328798935584396e-14 2.2169731686425562e-14
1.0377444298184205e-14 6.069784171170025e-15 5.2855995846774564e-14 8.042462428486684e-15 5.947994320091427e-14 -6.75824918861432e-14 -6.512005647198234e-14 -3.0503869872688395e-14
-8.008298954628924e-14 -5.6318612284884485e-14 2.94834175580244e-14 7.990466231401437e-14 2.4741835086113705e-14 -2.5737988808628304e-14 6.976648886107966e-14 1.381702694230677e-13
3.401155024133909e-14 2.5722405726582475e-15 -3.7432021805661655e-14 8.137699461172094e-14 2.373340850893583e-14 -2.0743882684864113e-14 6.9437948913795314e-15 3.716994793092756e-14
-8.375640705076312e-14 1.493281021140772e-13 -8.646758227317653e-14 -5.1194833521178326e-14 2.819869795312489e-14 1.749161890009136e-14 6.845113986999607e-14 7.263227864585789e-15
-9.779364801190635e-14 -5.020025502055341e-14 2.027441838569863e-15 2.2464593380969923e-14
00000000: af15 2777 375f f23f bc2d 8d21 97cf 4abd
00000010: b400 0e43 ab6b 1abd bc01 6662 aefe fc3c
00000020: 1df1 4329 0e3a 283d 13b1 3b9e 685f 38bd
00000030: 6fa3 cf6c 53c5 433d 8559 93d2 5dc7 183d
00000040: 8afa 982f aa06 183d 91a4 42e9 0e5b 1bbd
00000050: f238 2aa9 01da 3bbd fd9c ec5d 6a76 3fbd
00000060: 56b6 2831 11ec ffbc 1979 f8d5 bad9 42bd
00000070: f0c8 bacd 85b8 333d 4f78 1027 ebea 213d
00000080: 8a2d 1233 34c1 46bd 9d87 6c6f f53c 323d
00000090: 3937 f8a9 4dfe 1d3d 8b7e 666c 4bbd 3cbd
000000a0: 7621 934e 6743 323d 9074 318d 43ee 283d
000000b0: 93ce b792 1edb 163d 2a78 3c39 a5ca 2fbd
000000c0: 2626 84b2 a08b e23c e21c 4c5f 0e8f 313d
000000d0: f573 5641 b011 373d d725 de35 aacd 01bd
000000e0: a3f1 b7cd 85b8 333d ddfb 9230 11ec ffbc
000000f0: 9e0c 505f 0e8f 313d dc68 3427 ebea 213d
00000100: 5c04 5241 b011 373d f978 aa6c 4bbd 3cbd
00000110: 11a5 756f f53c 323d 135d 8792 1edb 163d
00000120: f959 8e34 aacd 01bd 5a1f f6d5 bad9 42bd
00000130: fd3d df39 a5ca 2fbd c756 2433 34c1 46bd
00000140: df69 994e 6743 323d 957d 358d 43ee 283d
00000150: e3a9 f8ab 4dfe 1d3d 151f 90b3 a08b e23c
00000160: a3b7 c731 1515 33bd 2e06 6034 096c 1a3d
00000170: cfdb 69f6 606e 253d d424 6976 b53f 213d
00000180: 39f7 0b8b 0ede 2c3d c316 ca65 fa1d 43bd
00000190: a1a6 832c f6ef 303d 9aed adc5 0e35 43bd
000001a0: 35e7 e326 d491 35bd 2f1d 58bd 4fc3 3d3d
000001b0: 1e6d 092d 0245 433d 843c 25eb 0a28 e3bc
000001c0: 2c88 0fb4 5e01 36bd 94fd 92eb be1b 1a3d
000001d0: dc2f 348f 6a03 2b3d 7ab7 5b23 d9f5 2f3d
000001e0: f89c b18f f41c 273d a26b a3d7 69c0 e8bc
000001f0: b932 c147 7e6a 0e3d 15ad e9df 255c 34bd
00000200: ca34 ef87 e0e0 0bbd bc96 7fb8 b6ef 28bd
00000210: 46f4 3a3e dae0 2f3d 8fe7 51dc ed23 313d
00000220: 8016 fb42 d4ab 383d 3f70 7360 f371 36bd
00000230: 17e1 0da8 13fb 4bbd aa16 0188 eaa7 343d
00000240: 46c1 ad9f 3105 143d 9a62 8b67 ee00 18bd
00000250: 533b 736e 4756 f6bc 58cf 7e92 c654 11bd
00000260: 6d8b 4ccc 13e6 1a3d 7ff5 1329 d630 213d
00000270: 2180 0f28 d630 21bd 3e59 7548 07a0 6cbd
00000280: 69e9 e9d6 9271 5dbd 3b45 0a39 28bb 54bd
00000290: 0030 d2c0 bbfa 3cbd 0080 5ed7 0ee2 debc
000002a0: 0040 3457 7c86 1abd 0071 d93b e684 48bd
000002b0: 00ec 87c8 f4a0 343d 0098 6677 fdf5 183d
000002c0: 0080 0d79 305e 073d 0040 4015 fc55 fb3c
000002d0: 0038 690e 5ac1 2d3d 00a0 18f8 291c 023d
000002e0: 00cc 2c4a fbbd 303d 000e 83ee d405 33bd
000002f0: 00be 0b04 6554 32bd 0084 5e29 122c 21bd
00000300: 0070 ae69 968a 36bd 0020 080e 5eb4 2fbd
00000310: 00c0 c01d 0299 203d 0000 23db bc7d 363d
00000320: 0000 f132 59db 1b3d 00d0 be5e 78fa 1cbd
00000330: 0004 a090 34a3 333d 0054 a0cc 1b72 433d
00000340: 00c0 c7b9 9425 233d 0080 51d5 2e2b e73c
00000350: 007c 52da 8512 25bd 00c0 d497 d4e7 363d
00000360: 00a8 7773 b0b8 1a3d 0028 4361 045b 17bd
00000370: 00c0 2484 a645 ff3c 00dc 8e08 c1ec 243d
00000380: 00d2 6101 4993 37bd 00e1 2fa4 1c04 453d
00000390: 00b2 615c a556 38bd 0040 d5fb f3d1 2cbd
000003a0: 0030 4ca8 b8bf 1f3d 00b8 4cab 9db1 133d
000003b0: 00e4 a2a8 6c44 333d 00f0 993e f75a 003d
000003c0: 00e6 9b65 c686 3bbd 002c 7b83 9e42 2cbd
000003d0: 0040 4d6c f642 e23c 0098 556b fa4a 193d
