hw2/gen_model.npy (npy, 1136 bytes, 1 tensors)

array f8 [132]
000000 af 15 27 77 37 5f f2 3f d8 df cc 21 81 ff 40 bd
       1.1482462553407051 -1.2077851002660634e-13
000010 80 29 2e 67 0f b6 16 bd c0 35 6d b0 fc f7 f8 3c
       -2.0171573328886352e-14 5.544165011681347e-15
000020 22 2c 5e a0 3c 3c 26 3d ec b6 29 74 09 a0 36 bd
       3.9497827383906406e-14 -8.038065947229988e-14
000030 30 5e 41 23 06 4c 44 3d 90 f3 7f 39 4a 90 19 3d
       1.4421863635133005e-13 2.2705066784608608e-14
000040 98 14 f3 21 64 63 0a 3d 02 19 b2 f7 02 87 1d bd
       1.1718735605217791e-14 -2.6225589727772543e-14
000050 d0 01 20 de d9 46 3b bd 56 d9 b0 ab 38 6c 40 bd
       -9.690652510453621e-14 -1.1669058413415894e-13
000060 1e 71 33 b5 6d ae fb bc 9c d3 f7 f4 72 5a 42 bd
       -6.1464969799253664e-15 -1.3040815789500525e-13
000070 3b 8e 53 65 a2 7e 32 3d ae 37 11 f2 a5 6b 21 3d
       6.570625097648825e-14 3.094502588135148e-14
000080 9e 7f d2 3d 9c 40 46 bd b0 bc 64 7e 89 e1 31 3d
       -1.5811269844325852e-13 6.352608834611388e-14
000090 ee b0 45 f8 b6 43 1c 3d 46 76 6b e7 a9 4a 3a bd
       2.5103928400749274e-14 -9.340672245999199e-14
0000a0 aa f4 dc f9 1a e0 32 3d cf 10 8a 39 4b ec 26 3d
       6.705893306075494e-14 4.0719468399413394e-14
0000b0 6b 53 c2 4b 26 cc 15 3d bb c1 22 53 22 59 2e bd
       1.9360032998585682e-14 -5.3909197113643757e-14
0000c0 ba 23 96 b8 f3 0d c7 3c 5d 99 48 b6 77 95 30 3d
       6.398909218595071e-16 5.89176988471503e-14
0000d0 42 15 4c cb c6 51 35 3d 07 91 ef 62 41 d5 f9 bc
       7.574186471860758e-14 -5.736084711288098e-15
0000e0 7b 1d 57 65 a2 7e 32 3d 1e 66 8d b6 6d ae fb bc
       6.570625097943266e-14 -6.146496997810926e-15
0000f0 99 57 41 b6 77 95 30 3d 96 09 cc f1 a5 6b 21 3d
       5.891769884114754e-14 3.094502585273928e-14
000100 a7 e7 5a cb c6 51 35 3d bd 88 b5 e7 a9 4a 3a bd
       7.574186473086793e-14 -9.340672252126302e-14
000110 e1 70 63 7e 89 e1 31 3d 88 2b 07 4c 26 cc 15 3d
       6.352608834504174e-14 1.9360033012822328e-14
000120 86 05 3c 63 41 d5 f9 bc a3 1d f1 f4 72 5a 42 bd
       -5.736084715240732e-15 -1.3040815788390311e-13
000130 12 7e 28 54 22 59 2e bd 53 a0 ef 3d 9c 40 46 bd
       -5.3909197221895106e-14 -1.5811269849144636e-13
000140 76 d4 e0 f9 1a e0 32 3d be d3 89 39 4b ec 26 3d
       6.705893306395961e-14 4.0719468399314736e-14
000150 6a de 87 fa b6 43 1c 3d fe 93 8c a6 f3 0d c7 3c
       2.5103928520313614e-14 6.398908920192156e-16
000160 d4 e2 1f b3 d8 87 2f bd 58 56 84 a2 c5 29 21 3d
       -5.600968635571662e-14 3.0487917822714544e-14
000170 20 c7 57 4f d1 1a 2c 3d d8 cd 6d 17 7d 3a 03 3d
       4.992407610181425e-14 8.539156601863505e-15
000180 0a e7 50 60 64 dd 32 3d e3 c7 64 db d6 e2 45 bd
       6.702127873051015e-14 -1.5551002944207995e-13
000190 b1 51 c7 27 34 45 2f 3d 33 1c c9 69 a1 fd 41 bd
       5.554725937532366e-14 -1.2783192616688673e-13
0001a0 57 64 e1 7d 3a f4 35 bd 4e ba fb 45 81 c9 3e 3d
       -7.799633832243691e-14 1.0937785363694092e-13
0001b0 f2 cb dc ae b6 14 42 3d 38 b4 b9 8b b9 08 03 bd
       1.284726104858137e-13 -8.452830082221647e-15
0001c0 1c d0 e4 86 ae ec 37 bd 2a 94 3e 5d 34 33 16 3d
       -8.499703365882971e-14 1.9717576695684496e-14
0001d0 8c 8f 50 40 97 58 2e 3d d2 d8 51 40 d5 f3 2f 3d
       5.39054275183352e-14 5.675899342674039e-14
0001e0 0c e8 a9 03 0c b1 2a 3d 10 a9 e7 1c 1e 32 e2 bc
       4.7413787693958846e-14 -2.0201365010285653e-15
0001f0 33 6f c8 9c af 78 16 3d a5 c3 1d 5d c7 03 34 bd
       1.9958638859909593e-14 -7.110671446918612e-14
000200 78 d7 5b da ec 39 17 bd 1c 25 92 e4 1c f7 27 bd
       -2.0629072085589388e-14 -4.257089724287472e-14
000210 88 09 5b 2e 50 ca 2f 3d 3e 0a 16 c0 c6 1f 2e 3d
       5.647089190243356e-14 5.351119803168871e-14
000220 cb b6 4b e5 80 21 3a 3d a3 ee e4 dc 9e da 37 bd
       9.283551009564022e-14 -8.474638432785806e-14
000230 26 e1 70 85 c6 fa 4b bd d2 ab d0 b6 9d b9 36 3d
       -1.9880695627658393e-13 8.073564137771856e-14
000240 9c 96 20 7f 94 57 08 3d ce a5 a3 a7 7c 49 18 bd
       1.0810068230852597e-14 -2.1571241088410905e-14
000250 20 05 ce 66 5f eb d5 bc dd 70 4b 8b 8e d6 19 bd
       -1.2167724862456585e-15 -2.2948853973276902e-14
000260 bb 4b ce 34 7a a9 23 3d c1 e9 06 70 5a 86 20 3d
       3.492676542602727e-14 2.935397252973612e-14
000270 56 ae 56 6e 5a 86 20 bd 78 e4 04 63 b9 4e 9b bd
       -2.9353972350969114e-14 -6.20901034334918e-12
000280 aa a0 9e 5b e9 23 85 3d e0 d9 8c cc a0 34 64 3d
       2.4033715259074145e-12 5.742770837966867e-13
000290 b9 f1 4d 7b 8c 57 41 bd 96 78 b5 cd a9 0c 0e bd
       -1.232222312096657e-13 -1.3344643610826772e-14
0002a0 c0 a7 fb 29 1d fd 0d bd c5 d1 62 13 c3 63 46 bd
       -1.331766974799922e-14 -1.5908835400582877e-13
0002b0 c5 cd b3 cb 88 ec 34 3d be d3 d0 75 51 d0 12 3d
       7.433684720907941e-14 1.670996051242111e-14
0002c0 dc 96 95 57 22 ac f6 3c 10 56 f8 eb f2 84 08 bd
       5.034283882934519e-15 -1.0888770637091891e-14
0002d0 48 35 d2 fe 43 7e 2b 3d c0 c3 af 74 1e 38 f6 3c
       4.8837778314574107e-14 4.933656753965746e-15
0002e0 2f 06 7d ec b1 c4 35 3d 32 8a 5e 66 d8 44 33 bd
       7.73366789327301e-14 -6.845698052914541e-14
0002f0 38 79 be 04 78 eb 34 bd 70 b3 97 53 fd e3 f7 bc
       -7.432205992847027e-14 -5.304775331480317e-15
000300 ca d6 e5 6e 67 d1 38 bd 2d 22 55 f3 c3 d1 31 bd
       -8.817119306775797e-14 -6.33072126902958e-14
000310 82 fb 90 06 7b 44 13 3d 28 64 f1 79 30 6a 36 3d
       1.7112979675494445e-14 7.963337434887412e-14
000320 c0 21 c0 69 28 5d d2 bc 7e 61 5e 65 74 6e 25 bd
       -1.0194011137878645e-15 -3.806992687596122e-14
000330 ba 38 f2 41 ba c8 33 3d 42 92 f7 b6 22 2b 42 3d
       7.028721450362292e-14 1.2909494596524712e-13
000340 38 62 db 14 4c 8c 1c 3d f8 5c d1 e8 a6 32 0d bd
       2.5355749421099537e-14 -1.2966454281841121e-14
000350 c7 c0 75 2c d2 8e 27 bd f6 10 3c a0 6a b3 42 3d
       -4.184722700934886e-14 1.3287750087705102e-13
000360 42 17 d2 ed 55 82 22 3d 07 2a 13 f6 96 16 1c bd
       3.287880842657158e-14 -2.4947369490714518e-14
000370 10 2a 91 b9 17 2f 00 3d 38 4d 0b 3d 80 c0 21 3d
       7.18712012695307e-15 3.153380980960687e-14
000380 28 6c 91 db 70 38 37 bd 10 85 3c 7f 7b 2f 54 3d
       -8.249568875715957e-14 2.868528975587798e-13
000390 2a b0 2e 27 8f c8 3c bd de 67 85 85 c6 9b 30 bd
       -1.0225930091070095e-13 -5.900523784672299e-14
0003a0 2e a7 91 65 b7 45 13 3d 41 5c fb 88 cf 99 0e 3d
       1.7117267303472563e-14 1.3589495299767062e-14
0003b0 6b 85 0a 21 6d fa 32 3d a8 6b e8 b5 a8 8f 17 bd
       6.74242090689274e-14 -2.0926521021918122e-14
0003c0 9c 56 10 88 49 a6 3b bd be b1 80 d7 b4 fa 2c bd
       -9.823096825427524e-14 -5.147761670619718e-14
0003d0 88 aa 57 fd 22 ed d5 3c d8 12 07 66 39 fd 0d 3d
       1.2171549961922721e-15 1.331786107274681e-14
0003e0 5e ff 3c 5a 59 83 74 bd 4c f4 1e a5 82 ca b1 3d
       -1.166033721395177e-12 1.6180871156895245e-11
0003f0 f1 e9 58 ff ce 3f a6 bd 60 56 18 5b 10 43 84 bd
       -1.01177885337316e-11 -2.3035191043520817e-12
000400 8c 0f 48 b6 ff b4 7c 3d 4f ad d1 47 d7 10 a7 bd
       1.6318055518260185e-12 -1.048910458866769e-11
000410 92 c3 6a b2 9d 54 a1 3d 00 fd 55 22 89 2b 7f 3d
       7.881013181926165e-12 1.7718128475894555e-12
