hw2/logi_model.npy (npy, 624 bytes, 1 tensors)

array f8 [68]
-6.208203292059603 1.8811907880930825 0.04789768980392197 -0.7260959390918611 -0.9797221435751368 -0.3047393677254045 -1.871135135280739 -0.8269293045574891
-1.489834632492604 -0.5154770375803464 1.1127131285458032 1.549094641472242 3.0191175380333357 -0.32235585570757663 0.3099725733745334 3.1671228995217278
-0.028506363980287937 1.0221340584929317 2.4885137847143315 -2.258884711812128 -0.26710087944372013 0.7123506444950312 1.5584080381587728 2.1636547364425573
0.2190699618738059 1.361791668330015 1.8954286428728138 -0.029339604496764263 2.3453093244272507 -0.43006850916650424 0.49533591376863834 0.3708439260395496
-1.2610126379828557 -0.43253734138689015 0.3486427827825721 -1.110634596369623 -0.5431796900126152 -0.9076417270755537 -0.34736420012855196 -0.33630088940243735
-0.16305827520312502 0.21467927931099257 -3.0088314347592156 -0.7387248819052655 0.43545929268807954 0.5067044977469093 1.0366106326904636 0.1896677951196408
27.498199208832364 2.7566272105397145 2.996828097333117 0.6968610893613284 -0.46389892641247255 1.6458434725126945 -0.7082318699765846 -0.5181557948393835
0.14758712976296948 -0.6710535732713926 -0.7101239764897835 0.47003046821430816 0.3846368534440668 0.6641784337111597 0.7409083698515391 -0.00021239382445752635
-1.8830725771539607 0.2549450199666434 -0.8284247008741187 0.8437411214104726
00000000: 1b43 693e 33d5 18c0 1057 0683 5b19 fe3f
00000010: 530a 86c6 0b86 a83f f00d 058d 2d3c e7bf
00000020: b34f ba40 e259 efbf 11cc 8b8c d980 d3bf
00000030: 43d6 4665 2bf0 fdbf c7b5 e571 3476 eabf
00000040: 0710 f0d6 5cd6 f7bf bee3 47b3 c97e e0bf
00000050: f2f1 0e48 accd f13f 9583 7876 17c9 f83f
00000060: d210 8518 2727 0840 6e0a 7c74 7aa1 d4bf
00000070: b93c 5334 97d6 d33f 3dde de87 4456 0940
00000080: 1fc4 17b4 c530 9dbf a4ad 153e a95a f03f
00000090: 27f2 47ea 79e8 0340 fd56 d525 3212 02c0
000000a0: 3764 7c49 2e18 d1bf 7680 2c94 93cb e63f
000000b0: 7b72 5b44 3def f83f abd9 e636 2a4f 0140
000000c0: e858 e408 7c0a cc3f 4615 770f e6c9 f53f
000000d0: 79a5 10fc ac53 fe3f 512a 2a87 330b 9ebf
000000e0: e659 fb88 31c3 0240 1537 7a11 3e86 dbbf
000000f0: bfea 8a67 95b3 df3f 9da5 9029 e8bb d73f
00000100: 33aa 7f96 1b2d f4bf fe8c e319 b1ae dbbf
00000110: b267 82d1 2950 d63f 476b 53c8 28c5 f1bf
00000120: 4794 8e5f ba61 e1bf 62c8 c8a9 660b edbf
00000130: f49c d60d 373b d6bf fd58 662a f485 d5bf
00000140: ad77 abf3 17df c4bf 0681 e251 9c7a cb3f
00000150: 9fbd 1b37 1612 08c0 57c9 105d a2a3 e7bf
00000160: fb69 35a7 90de db3f fee3 d159 ec36 e03f
00000170: 6a76 e107 f595 f03f 2f57 92c8 0847 c83f
00000180: fdd3 bcfb 897f 3b40 1641 2491 920d 0640
00000190: b53c 6e02 81f9 0740 c92d 95a0 af4c e63f
000001a0: 42d4 651f 85b0 ddbf fe6e 0cf7 5f55 fa3f
000001b0: 7019 f1e1 d5a9 e6bf 5d2d 2276 bb94 e0bf
000001c0: 333c d293 22e4 c23f f710 e257 4579 e5bf
000001d0: 8821 e4ea 55b9 e6bf 48a8 46ac fa14 de3f
000001e0: 2d3b 98e4 e39d d83f 15ef 6f21 f340 e53f
000001f0: 820a 3b78 85b5 e73f ba56 510f c1d6 2bbf
00000200: 61ee edb5 1021 febf 2c3a c2ea 0451 d03f
00000210: 577e ae84 7482 eabf 72f2 5761 edff ea3f
